ReinforcementLearning/python-fun-master/snake-pygame/model/model/model.pth (torch, 63296 bytes, 4 tensors)

linear1.weight f4 [1024, 11]
-0.045047123 0.17890815 0.12624148 0.27658144 -0.11830975 -0.21249665 0.24846576 -0.037587516
-0.18815827 -0.07199841 -0.0070594954 -0.2080333 -0.27316865 0.042733338 -0.12639332 0.1382338
-0.0050369734 -0.03728068 -0.010059642 -0.23646995 0.0648729 -0.07373972 0.1421639 0.26594114
-0.0041090925 0.28168738 0.14866933 -0.13613595 -0.10578475 0.23178737 0.09316127 0.2323529
-0.22054744 -0.12326654 0.14495337 0.0122334715 0.06312492 -0.26215407 -0.018348841 -0.17610386
-0.08334937 0.042354636 0.088467866 0.19344303 0.13976263 -0.014204907 0.25994772 -0.013129889
0.20162171 0.23909745 -0.30083898 0.23397484 -0.27524018 -0.1862258 -0.2192385 -0.25166288
0.2708621 0.07519841 -0.1848003 -0.052195314 -0.26223198 0.17357154 -0.14738332 0.2585557
-0.26015374 -0.26332015 -0.2967618 -0.12529753 0.022192726 -0.29758173 0.24173366 0.29186085
0.11517017 0.04458141 -0.20579904 0.09460034 -0.13391626 -0.03935563 -0.27650484 -0.13324344
0.07303348 -0.20690303 -0.030372227 0.094637185 0.2674632 0.20259072 -0.025928132 -0.0271944
0.09694192 -0.17871915 0.057284974 -0.028699823 0.29296175 -0.23516576 -0.28027862 -0.027694479
-0.0064383196 0.1842424 -0.15088567 0.24184752 -0.02171642 -0.26813293 0.13945931 -0.077636346
0.18939222 -0.026093543 0.14326295 0.0012932399 0.09596657 -0.010630201 -0.29066193 0.061243236
-0.23654744 0.09665258 -0.08395799 -0.28524864 0.21543574 0.13653809 0.19381434 -0.17558208
-0.22273809 0.03005848 0.09465275 -0.026057621 0.15908739 0.087546974 0.25907868 -0.10905451
-0.21875794 -0.13748044 0.15192515 0.14455499 0.17091705 0.16109261 0.07579728 0.05591704
-0.058418084 0.009325291 0.080025874 0.2771066 0.012300764 0.28092992 -0.27551943 -0.049083013
0.20605138 -0.012273843 -0.13991062 -0.1094647 -0.27949995 -0.16756469 0.101854146 0.07670108
0.30022383 -0.28388786 -0.24782412 0.081865 0.20188041 -0.20397104 0.1697232 -0.059728455
0.18560557 -0.2855714 0.24003115 -0.23920043 -0.0073088263 0.22657281 0.06567647 -0.10414708
0.073957406 0.26948392 -0.24619277 0.2660041 -0.23668283 -0.098166786 -0.09560858 -0.14386754
-0.12484256 -0.19551338 0.25592962 0.29362437 0.25407898 0.23195724 -0.011343129 -0.26464576
0.124691755 0.20691352 0.21471006 0.081424125 -0.14612234 0.2566263 -0.17637797 -0.10174656
-0.24305409 -0.16235001 -0.21616858 0.008741074 0.2065281 -0.07167471 0.20899753 0.021006797
-0.05464737 0.25117975 0.24404801 -0.29630357 -0.08141442 0.23671858 -0.25907275 0.1414091
-0.23323275 -0.23304027 -0.26846018 0.26516277 -0.02593299 0.19842885 0.047313005 0.20430632
0.063707225 0.1345404 -0.12593505 0.29662883 0.1359585 -0.21108647 -0.14731571 0.2378265
0.16655461 0.10815644 -0.09109142 -0.06379625 0.072913386 -0.14467974 -0.08046269 0.23213443
0.02950297 0.24702217 0.18280017 -0.017400164 0.031268716 -0.13795085 -0.039655976 0.28579727
0.040721677 0.27627322 0.02965103 0.09719614 0.019709667 0.17257178 -0.20077021 0.11692041
-0.025653098 -0.21644183 0.045293543 -0.19820552 0.23445657 -0.13755767 -0.1496115 -0.16665885
00000000: 5583 38bd b333 373e 7245 013e 159c 8d3e
00000010: 624c f2bd b998 59be cf6d 7e3e 5ef5 19bd
00000020: 90ac 40be e773 93bd 5753 e7bb ae06 55be
00000030: c3dc 8bbe 2709 2f3d 406d 01be 298d 0d3e
00000040: 320d a5bb a0b3 18bd 32d1 24bc 2e25 72be
00000050: 15dc 843d da04 97bd 6a93 113e 7029 883e
00000060: 91a5 86bb 5439 903e c63c 183e 3967 0bbe
00000070: ada5 d8bd ab59 6d3e 56cb be3d ebed 6d3e
00000080: 30d7 61be 2b73 fcbd a86e 143e e66e 483c
00000090: a347 813d 0f39 86be 4f50 96bc 9254 34be
000000a0: 13b3 aabd 0e7c 2d3d a42e b53d ee15 463e
000000b0: ef1d 0f3e b3bb 68bc de17 853e bf1e 57bc
000000c0: ec75 4e3e f6d5 743e 9107 9abe 1a97 6f3e
000000d0: 48ec 8cbe fab1 3ebe 0f80 60be f5d9 80be
000000e0: 70ae 8a3e a001 9a3d 4a3c 3dbe c1ca 55bd
000000f0: 4543 86be bdbc 313e a7eb 16be 6a61 843e
00000100: df32 85be e6d1 86be 2af1 97be ff4d 00be
00000110: 85cd b53c a25c 98be 0789 773e c96e 953e
00000120: 57de eb3d ff9a 363d fcbc 52be d3bd c13d
00000130: 5821 09be 5e33 21bd 0b92 8dbe f870 08be
00000140: 9492 953d 63de 53be 2dcf f8bc 24d1 c13d
00000150: f0f0 883e f173 4f3e 3c67 d4bc cac6 debc
00000160: 7c89 c63d 2702 37be a6a3 6a3d e41b ebbc
00000170: 15ff 953e 4bcf 70be ae80 8fbe 88df e2bc
00000180: 8af8 d2bb 0aaa 3c3e c681 1abe e0a6 773e
00000190: a2e6 b1bc b848 89be 6cce 0e3e ceff 9ebd
000001a0: 09f0 413e 20c2 d5bc 86b3 123e ee81 a93a
000001b0: 1f8a c43d 4b2a 2ebc a4d1 94be 30da 7a3d
000001c0: 7e39 72be caf1 c53d 2bf2 abbd 1c0c 92be
000001d0: 309b 5c3e a4d0 0b3e 4477 463e cacb 33be
000001e0: 7415 64be 343d f63c 4dd9 c13d cb76 d5bc
000001f0: cee7 223e d44b b33d f6a5 843e f957 dfbd
00000200: 1502 60be acc7 0cbe 4492 1b3e 3906 143e
00000210: e104 2f3e 76f5 243e 9b3b 9b3d 4409 653d
00000220: cd47 6fbd 1bc9 183c 9be4 a33d ebe0 8d3e
00000230: 2589 493c 0cd6 8f3e e210 8dbe 450b 49bd
00000240: 22ff 523e 3b18 49bc bb44 0fbe 072f e0bd
00000250: 9e1a 8fbe 1496 2bbe e898 d03d 7515 9d3d
00000260: f0b6 993e c059 91be 9bc5 7dbe d6a8 a73d
00000270: bdb9 4e3e c9dd 50be ebcb 2d3e d3a5 74bd
00000280: 630f 3e3e 6a36 92be baca 753e f5f0 74be
00000290: e17e efbb b402 683e 6381 863d 104b d5bd
000002a0: fb76 973d ccf9 893e f519 7cbe b031 883e
000002b0: fc5c 72be ab0b c9bd 6ece c3bd 0352 13be
000002c0: 75ad ffbd a934 48be 3509 833e ef55 963e
000002d0: a416 823e 3386 6d3e 88d8 39bc a67f 87be
000002e0: 645e ff3d 23e1 533e f4dc 5b3e b1c1 a63d
000002f0: 18a1 15be 8664 833e 6d9c 34be 8060 d0bd
00000300: 2ce3 78be 153f 26be 4c5b 5dbe b936 0f3c
00000310: 1a7c 533e 31ca 92bd 7303 563e 7216 ac3c
00000320: ecd5 5fbd a29a 803e b9e7 793e 1ab5 97be
00000330: 9abc a6bd 5b66 723e 2fa5 84be 8ccd 103e
00000340: 91d4 6ebe 1ca2 6ebe 9d73 89be 6ac3 873e
00000350: 6c71 d4bc ef30 4b3e 48cb 413d ad35 513e
00000360: ef78 823d f5c4 093e 1ef5 00be bcdf 973e
00000370: b438 0b3e 0d27 58be eed9 16be ca88 733e
00000380: 4b8d 2a3e 2081 dd3d 238e babd 9ca7 82bd
00000390: 9d53 953d ed26 14be 9fc9 a4bd a6b4 6d3e
000003a0: 36b0 f13c 61f3 7c3e f82f 3b3e ca8a 8ebc
000003b0: a013 003d fd42 0dbe 4e6e 22bd 0554 923e
000003c0: c6cb 263d af73 8d3e b8e6 f23c c50e c73d
000003d0: 2b76 a13c a8b6 303e b596 4dbe f873 ef3d
000003e0: 7226 d2bc eda2 5dbe b985 393d 63f6 4abe
000003f0: 6215 703e ebdb 0cbe c233 19be 9ea8 2abe

linear1.bias f4 [1024]
0.18814468 0.09981863 -0.04352684 -0.2526712 -0.18213004 -0.2862379 0.087321 0.22817317
0.097151764 0.10938663 -0.12655038 0.08955015 0.12851325 -0.02037667 -0.14226858 -0.22125371
0.18531843 -0.16629487 0.10717845 -0.13213696 -0.21657896 0.24971226 0.09073941 -0.23076598
-0.13820581 0.16876987 0.2095556 -0.06226298 0.15132822 0.17866446 -0.25371632 -0.083252564
-0.10700159 0.25124058 -0.26380047 -0.13698591 -0.0050473823 -0.2515215 -0.012351784 -0.059371233
-0.14319141 -0.21091479 -0.10332009 0.17630617 0.16769949 0.09926677 -0.13365676 0.16716036
0.08213259 -0.014752067 0.20243374 -0.22096974 -0.2497791 0.07796578 -0.26427 -0.18926853
-0.21890357 0.2700545 -0.17973328 -0.049888246 0.2738492 -0.1968791 -0.20734724 0.20177677
0.2289074 -0.05930185 0.14735228 0.28338212 -0.078808494 -0.19910787 0.0015769886 0.046783477
0.06931317 0.13076183 0.10415064 0.053004984 0.22723167 0.12680702 -0.14013343 -0.0052607185
-0.07943091 0.022145417 -0.17584252 0.08584187 0.076891094 0.1833555 -0.007736074 -0.11432675
-0.20158654 -0.22046681 0.024019022 -0.1543844 0.06849751 -0.14007963 -0.18807448 0.24037872
0.051085394 0.21756269 -0.10209366 -0.025282707 -0.25269243 -0.07328524 0.13255644 -0.16529758
0.27939224 0.13320605 -0.029516317 -0.047979318 0.07928825 -0.10749776 -0.20150356 0.06429135
0.17814082 -0.094043404 0.23884821 0.022794733 -0.08522038 -0.19720533 -0.19456948 0.0760339
0.28014967 0.23400706 0.29290462 0.1654936 0.20038247 0.120201856 -0.02190306 0.06501323
-0.10253571 -0.15507594 0.28968754 0.2433347 -0.2546439 -0.27431172 -0.21440943 -0.23737949
-0.2826749 0.1722935 0.18853594 -0.16137218 -0.26244047 0.07662484 0.26387295 -0.2434922
-0.18467245 -0.051249277 0.20969482 0.072773464 -0.26914257 -0.24474272 -0.08533213 -0.06521931
-0.16092381 -0.21751788 -0.08992916 0.21210895 0.2737649 0.16951795 0.26979145 -0.25347766
0.13077842 -0.09771368 -0.25976962 -0.23233528 -0.0061696633 -0.06739185 0.16691875 0.17616275
0.10648037 -0.25010836 0.14408407 0.119069465 -0.144318 0.10934073 -0.12377837 0.13281912
0.10635606 0.071130425 -0.2700892 0.11650316 -0.0674384 0.2006399 0.18080139 0.08283321
-0.114336066 -0.0679332 -0.10818264 0.20604357 0.056679726 -0.16056001 -0.028113145 -0.09543052
0.10268495 -0.03985899 -0.06274987 0.16554552 -0.14622636 0.11364896 -0.2865166 0.21223454
0.15523902 -0.21978566 0.25384766 -0.18055733 -0.22327791 0.25836486 0.26382312 -0.06046019
0.26677477 0.08647065 -0.20061181 0.26591522 0.23102646 0.0034597781 -0.27346554 -0.23821612
-0.089602694 0.28467438 -0.19774447 -0.0014807424 0.08978666 -0.2073532 0.09528772 -0.12527503
0.18472664 -0.09870476 -0.075020954 0.12689248 -0.021449517 0.10237441 -0.2914602 0.19957846
0.0642623 -0.073271684 0.005754211 -0.26205915 0.038774386 -0.06812793 -0.08885227 0.2310778
0.048250623 0.15328439 0.22845477 -0.23279825 0.23043989 0.12638031 0.1533754 -0.16818237
0.23223679 0.2963059 0.15922105 0.28635275 -0.23807904 0.2598151 0.26063606 -0.097958274
00000000: 00a9 403e b66d cc3d 3349 32bd 1f5e 81be
00000010: 4c80 3abe c68d 92be 5ad5 b23d 3aa6 693e
00000020: 81f7 c63d 1906 e03d 6c96 01be 1266 b73d
00000030: fa98 033e f9ec a6bc dbae 11be 5590 62be
00000040: 1dc4 3d3e 3449 2abe 6080 db3d e94e 07be
00000050: e0c6 5dbe 92b4 7f3e 95d5 b93d eb4d 6cbe
00000060: d385 0dbe 02d2 2c3e be95 563e 7707 7fbd
00000070: c9f5 1a3e d1f3 363e 1be7 81be 5280 aabd
00000080: a623 dbbd 9ba2 803e db10 87be 0946 0cbe
00000090: 8364 a5bb 6dc7 80be 235f 4abc 402f 73bd
000000a0: c5a0 12be 0cfa 57be 7c99 d3bd 9b89 343e
000000b0: 6ab9 2b3e 604c cb3d 51dd 08be 162c 2b3e
000000c0: 2235 a83d a7b2 71bc ca4a 4f3e e445 62be
000000d0: 18c6 7fbe 86ac 9f3d 664e 87be 9ccf 41be
000000e0: 4228 60be 9544 8a3e 000c 38be 9e57 4cbd
000000f0: f635 8c3e ad9a 49be d652 54be 929e 4e3e
00000100: b466 6a3e 7fe6 72bd 84e3 163e 7617 913e
00000110: 5966 a1bd efe2 4bbe f5b2 ce3a 08a0 3f3d
00000120: 10f4 8d3d 6ee6 053e ee4c d53d c11b 593d
00000130: 6baf 683e b3d9 013e 237f 0fbe 1b62 acbb
00000140: acac a2bd 4e6a b53c 1010 34be ddcd af3d
00000150: 1479 9d3d 8bc1 3b3e e47e fdbb 2524 eabd
00000160: b46c 4ebe 0dc2 61be 8ac3 c43c f216 1ebe
00000170: 6c48 8c3d 0971 0fbe 9996 40be d725 763e
00000180: eb3e 513d c1c8 5e3e 7b16 d1bd ae1d cfbc
00000190: e760 81be 9216 96bd e0bc 073e c543 29be
000001a0: 800c 8f3e 2b67 083e 34cc f1bc f685 44bd
000001b0: e161 a23d c927 dcbd f356 4ebe 2fab 833d
000001c0: 8c6a 363e d499 c0bd a094 743e 05bc ba3c
000001d0: 0688 aebd 32f0 49be 393d 47be a9b7 9b3d
000001e0: c76f 8f3e 8c9f 6f3e 98f7 953e 2777 293e
000001f0: 1031 4d3e 642c f63d 0c6e b3bc a825 853d
00000200: 3efe d1bd 3acc 1ebe ed51 943e bb2c 793e
00000210: af60 82be 9672 8cbe 258e 5bbe 9c13 73be
00000220: c4ba 90be b56d 303e 910f 413e c03e 25be
00000230: 995e 86be 7ced 9c3d 5b1a 873e 0556 79be
00000240: c61a 3dbe c3ea 51bd 3dba 563e 410a 953d
00000250: 0ecd 89be d69d 7abe 9dc2 aebd b491 85bd
00000260: 36c9 24be 02bd 5ebe c82c b8bd 1733 593e
00000270: ea2a 8c3e 1d96 2d3e 1b22 8a3e d3c7 81be
00000280: c7ea 053e 1c1e c8bd 8600 85be 4de9 6dbe
00000290: e32a cabb bd04 8abd c0ec 2a3e 0264 343e
000002a0: 6112 da3d 340e 80be c68a 133e b1da f33d
000002b0: 19c8 13be 08ee df3d 847f fdbd bc01 083e
000002c0: 35d1 d93d d4ac 913d 2249 8abe 3599 ee3d
000002d0: 251d 8abd 8c74 4d3e 0024 393e 75a4 a93d
000002e0: 0729 eabd 9020 8bbd dc8e ddbd 16fd 523e
000002f0: 0029 683d d869 24be 8a4d e6bc 1471 c3bd
00000300: 7d4c d23d 2e43 23bd 0183 80bd c484 293e
00000310: 5dbc 15be c9c0 e83d 4eb2 92be 0354 593e
00000320: faf6 1e3e 7e0f 61be 52f8 813e 05e4 38be
00000330: f7a2 64be 6648 843e d313 873e 1ba5 77bd
00000340: b496 883e 8617 b13d 2f6d 4dbe 0a26 883e
00000350: 3392 6c3e 72bd 623b ad03 8cbe edee 73be
00000360: 9e81 b7bd d7c0 913e 877d 4abe 7815 c2ba
00000370: 12e2 b73d 6654 54be 3526 c33d 1948 00be
00000380: fb28 3d3e b925 cabd 96a4 99bd 1af0 013e
00000390: e6b6 afbc ada9 d13d 453a 95be 4c5e 4c3e
000003a0: f49b 833d 770f 96bd d28d bc3b 9e2c 86be
000003b0: e4d1 1e3d a886 8bbd 2ef8 b5bd a99f 6c3e
000003c0: 72a2 453d 95f6 1c3e 0cf0 693e aa62 6ebe
000003d0: 6ff8 6b3e d769 013e 710e 1d3e 0038 2cbe
000003e0: 7bcf 6d3e 68b5 973e d80a 233e d49c 923e
000003f0: feca 73be 7c06 853e 1772 853e 599e c8bd

linear2.weight f4 [3, 1024]
0.021403845 -0.015742265 0.012678463 -0.021738451 -0.011958703 0.021761682 -0.022330623 0.015335638
-0.026726834 0.02690579 0.0018890463 -0.009536721 -0.013334423 -0.016807437 0.0023364872 -0.009170007
-0.025170047 -0.007095117 0.029575001 -0.020860534 0.0032174066 0.017894939 0.014185198 0.030811317
-0.006752141 -0.027895868 0.008317534 0.013741553 -0.023281775 -0.015562374 0.010318954 0.00801206
-0.01361708 -0.008365225 0.016376596 -0.015759319 -0.021467447 0.0030304827 0.028391026 0.0054170266
-0.011751626 -0.012129653 -0.029657684 0.023803424 0.004914943 0.030962888 0.004142698 0.0064427815
0.004414715 -0.0015306659 0.024987422 0.028100085 0.011233367 -0.00048655272 0.014435969 -0.015063036
-0.031065874 -0.019549094 0.027111202 -0.029450502 0.0055917725 0.018871833 0.0042132437 -0.0123542175
0.028842635 0.024927657 -0.017034125 -0.020434827 -0.015242465 -0.013438575 -0.0053245015 0.028872006
-0.01652963 0.029270299 -0.0012812838 0.018805053 -0.022409625 0.020718351 -0.03114717 0.012070205
0.002952464 0.016746443 -0.027535263 -0.0005442612 0.006520681 0.0011831447 -0.013657328 -0.009319685
-0.016216882 -0.0041101463 0.021071017 0.030838773 -0.0019945316 -0.027010988 0.024346016 -0.013395574
-0.018338192 0.016756538 -0.01032811 -0.013433356 -0.017355267 -0.02678812 -0.025599938 -0.018856775
-0.01072263 -0.019385088 -0.017785806 0.0036837421 -0.02915677 0.007920623 -0.02425953 -0.030754946
0.023196947 0.0064977556 -0.007159397 -0.024404466 -0.010076247 -0.008156698 0.006734647 0.012328416
-0.015037432 -0.0013767593 -0.023434106 -0.015256241 -0.021075618 0.015235409 -0.0059042163 0.0041389465
-0.012209427 0.022076238 0.018989466 0.023686059 -0.02393512 0.0042504855 0.013383426 -0.0044468865
-0.017091386 0.0052626915 0.017134253 -0.027856603 0.0010276549 -0.0032949895 0.022424653 0.018206723
-0.024888944 0.016194109 -0.00012222677 -0.014719155 -0.0062728934 -0.026519556 0.0069501325 -0.028978188
-0.0025836974 0.008231048 -0.010941237 -0.0031909868 0.019258637 0.030430254 0.029012103 -0.018311206
-0.02986753 0.001537595 -0.023491003 0.013713326 0.0081985295 -0.0074144527 9.36836e-05 0.0015407577
0.020109713 -0.017322104 -0.015470903 0.013675343 -0.025176007 0.013359252 -0.0049846284 -0.020615011
-0.01629309 -0.01688959 0.023520999 -0.02209165 0.00063095987 0.020553488 -0.0026094168 0.010268211
-0.02912242 0.006887052 -0.028292693 -0.027111158 -0.028862491 0.0016074963 -0.023529772 0.023173958
0.016546752 0.019136652 -0.009050522 -0.025257941 0.0017798394 -0.019836653 -0.013843946 -0.030659057
0.007367395 -0.023695648 0.029172279 -0.0011850111 -0.03043044 0.02226723 -0.0043242127 0.002109304
-0.010097008 0.007628247 -0.011625767 -0.0023107529 0.00981367 0.023372732 0.0074498095 -0.014225829
-0.016553972 0.009643886 0.014774337 0.015147563 -0.025571354 -0.030297238 -0.0090966 -0.020782627
-0.01283462 0.010046199 0.0133577585 0.015857633 0.023607187 0.009713624 -0.0122398175 -0.02728188
-0.0052029938 0.026426677 0.0044202283 -0.024535604 -0.007722482 0.030643255 0.015421975 0.023092736
-0.022305995 -0.0073119737 -0.028315034 0.0022483505 0.008138068 0.030961014 -0.030660693 0.018680532
0.005995471 0.0048928075 0.029507108 0.026341606 0.007971924 -0.006703131 -0.012066677 -0.02319976
00000000: 1e57 af3c ecf5 80bc 54b9 4f3c d614 b2bc
00000010: 70ee 43bc 8e45 b23c b6ee b6bc 5442 7b3c
00000020: 3cf2 dabc 8869 dc3c e099 f73a e83f 1cbc
00000030: a078 5abc c0af 89bc c01f 193b cc3d 16bc
00000040: 6a31 cebc 287e e8bb 4647 f23c b6e3 aabc
00000050: 20db 523b 6898 923c 0869 683c 0468 fc3c
00000060: 1041 ddbb e085 e4bc 4446 083c 4024 613c
00000070: 6cb9 bebc 54f9 7ebc d410 293c 0445 033c
00000080: 2c1a 5fbc 4c0e 09bc 3628 863c b019 81bc
00000090: 80dc afbc 109b 463b 4c94 e83c 5081 b13b
000000a0: e489 40bc 74bb 46bc acf4 f2bc 66ff c23c
000000b0: 880d a13b e2a5 fd3c 78bf 873b f81d d33b
000000c0: 50a9 903b a0a0 c8ba 6cb2 cc3c 2632 e63c
000000d0: 280c 383c 0018 ffb9 d884 6c3c f4ca 76bc
000000e0: dc7d febc 6c25 a0bc 5018 de3c 2e42 f1bc
000000f0: 303b b73b 1a99 9a3c 400f 8a3b 5869 4abc
00000100: 6447 ec3c 1635 cc3c 268b 8bbc f066 a7bc
00000110: 88bb 79bc 782d 5cbc 2879 aebb fc84 ec3c
00000120: 2669 87bc 44c8 ef3c c0f0 a7ba 0e0d 9a3c
00000130: 6494 b7bc 88b9 a93c 5a28 ffbc 1cc2 453c
00000140: 207e 413b d62f 893c a291 e1bc c0ac 0eba
00000150: 70ab d53b c013 9b3a fcc2 5fbc 98b1 18bc
00000160: 44d9 84bc 68ae 86bb 209d ac3c 98a1 fc3c
00000170: b0b6 02bb 2646 ddbc 4c71 c73c 1c79 5bbc
00000180: fa39 96bc 0245 893c 3c37 29bc 9417 5cbc
00000190: a22c 8ebc c272 dbbc f6b6 d1bc 8679 9abc
000001a0: f8ad 2fbc 7acd 9ebc 8ab3 91bc f06a 713b
000001b0: 2eda eebc 80c5 013c ecbb c6bc ccf1 fbbc
000001c0: 8607 be3c 20eb d43b 6099 eabb e0eb c7bc
000001d0: d816 25bc aca3 05bc 50ae dc3b 20fd 493c
000001e0: 905f 76bc 6074 b4ba e2f8 bfbc 50f5 79bc
000001f0: c6a6 acbc f09d 793c 2878 c1bb 00a0 873b
00000200: 0c0a 48bc 3ad9 b43c cc8f 9b3c 4409 c23c
00000210: 9613 c4bc a847 8b3b 2846 5b3c 30b7 91bb
00000220: 3c03 8cbc a872 ac3b 225d 8c3c 8833 e4bc
00000230: 60b2 863a c0f0 57bb e8b3 b73c 4426 953c
00000240: e6e3 cbbc 82a9 843c 002a 00b9 9c28 71bc
00000250: d88c cdbb 8a3f d9bc f0bd e33b aa63 edbc
00000260: 4053 29bb 84db 063c e042 33bc e01f 51bb
00000270: 4ac4 9d3c de48 f93c caaa ed3c 6201 96bc
00000280: c0ac f4bc 2089 c93a 3470 c0bc dcad 603c
00000290: 2053 063c f0f4 f2bb 0078 c438 40f3 c93a
000002a0: 20bd a43c 16e7 8dbc ac79 7dbc 8c0e 603c
000002b0: ea3d cebc c4e0 5a3c 1856 a3bb d0e0 a8bc
000002c0: 1679 85bc 0a5c 8abc 1caf c03c 8cf9 b4bc
000002d0: 0067 253a ca5f a83c c002 2bbb 003c 283c
000002e0: 2492 eebc c8ac e13b 14c6 e7bc 3818 debc
000002f0: 0871 ecbc a0b2 d23a 82c1 c0bc 50d7 bd3c
00000300: 0e8d 873c 78c4 9c3c a448 14bc bee9 cebc
00000310: 8049 e93a 7a80 a2bc b8d1 62bc b428 fbbc
00000320: 306a f13b 601d c2bc b4fa ee3c 6052 9bba
00000330: 4249 f9bc c469 b63c 20b2 8dbb 403c 0a3b
00000340: ec6d 25bc 60f6 f93b 007a 3ebc 0070 17bb
00000350: 84c9 203c 2c78 bf3c 881d f43b 7413 69bc
00000360: 329c 87bc 6401 1e3c 1010 723c 7c2d 783c
00000370: 047b d1bc ea31 f8bc e809 15bc 5440 aabc
00000380: 4c48 52bc d098 243c 80da 5a3c dee7 813c
00000390: dc63 c13c e425 1f3c 8489 48bc 407e dfbc
000003a0: e07d aabb c27c d83c 90d7 903b e4fe c8bc
000003b0: e00c fdbb 9007 fb3c 74ac 7c3c fa2c bd3c
000003c0: 10bb b6bc 4899 efbb eef4 e7bc 1059 133b
000003d0: 8855 053c f4a1 fd3c 222c fbbc ea07 993c
000003e0: a875 c43b d853 a03b e4b8 f13c 5aca d73c
000003f0: ac9c 023c f0a5 dbbb 50b3 45bc 6c0d bebc

linear2.bias f4 [3]
0.027615625 -0.022874162 0.012711639
00000000: 2a3a e23c 9862 bbbc 7a44 503c
